_________________________________________________________________
Layer (type)                 Output Shape              Param #   
=================================================================
input_1 (InputLayer)         (None, 3, 150, 1)         0         
_________________________________________________________________
conv2d_1 (Conv2D)            (None, 3, 114, 50)        1900      
_________________________________________________________________
max_pooling2d_1 (MaxPooling2 (None, 3, 57, 50)         0         
_________________________________________________________________
dropout_1 (Dropout)          (None, 3, 57, 50)         0         
_________________________________________________________________
conv2d_2 (Conv2D)            (None, 3, 21, 50)         92550     
_________________________________________________________________
max_pooling2d_2 (MaxPooling2 (None, 3, 10, 50)         0         
_________________________________________________________________
dropout_2 (Dropout)          (None, 3, 10, 50)         0         
_________________________________________________________________
conv2d_3 (Conv2D)            (None, 3, 1, 10)          5010      
_________________________________________________________________
conv2d_4 (Conv2D)            (None, 1, 1, 600)         18600     
_________________________________________________________________
reshape_1 (Reshape)          (None, 600)               0         
_________________________________________________________________
dense_1 (Dense)              (None, 5)                 3005      
=================================================================
Total params: 121,065
Trainable params: 121,065
Non-trainable params: 0
_________________________________________________________________

0.9957716701902748
0.9113924050632911
0.3860759493670886